hand_gesture_model.tflite (tflite, 41700 bytes, 8 tensors)

arith.constant f2 [128, 63]
000000 52 2a 8d b4 2d 32 62 aa 6c b3 86 af ae ac 18 b2
       0.04938 -0.2844 0.193 -0.04987 -0.2319 -0.11755 -0.0731 -0.1904
000010 cd ac 27 b3 0e ab 4b 32 dd b6 91 28 24 ae c5 33
       -0.075 -0.2235 -0.0551 0.1967 -0.429 0.03568 -0.09595 0.2428
000020 a6 34 06 30 b6 2e 0e 32 a9 aa eb af 05 b1 e7 af
       0.2905 0.1257 0.10486 0.1892 -0.05203 -0.1237 -0.1569 -0.1235
000030 ec af 86 aa 69 2b 71 31 9b ab c4 0d e0 2a fa 31
       -0.1238 -0.05096 0.0579 0.17 -0.05942 0.000352 0.0537 0.1868
000040 96 ae e3 b2 ff b1 47 b0 ab b0 a1 26 de 2b c2 30
       -0.1029 -0.2152 -0.1874 -0.1337 -0.1459 0.0259 0.06146 0.1487
000050 d2 a7 9a 26 b0 2e 4a a9 3f 30 4c 30 55 27 cd 2d
       -0.03055 0.02579 0.1045 -0.04132 0.1327 0.1343 0.02864 0.09064
000060 6e 1b f1 a6 f4 2d 90 2d c4 b2 8d ae 77 2a 97 27
       0.003628 -0.02711 0.093 0.0869 -0.2114 -0.10236 0.0505 0.02965
000070 67 9d 92 ac 28 b4 81 ad c9 b2 cb 2a fd b2 dc 26
       -0.005276 -0.0714 -0.2598 -0.086 -0.212 0.05307 -0.2184 0.0268
000080 e9 31 2a b3 29 32 af 31 0b b2 ff a7 3c af 04 2d
       0.1847 -0.2239 0.1925 0.1776 -0.1888 -0.03123 -0.11304 0.07837
000090 d3 a7 9c ad 75 a1 86 b0 8d a6 91 a4 c3 a4 16 2c
       -0.03056 -0.08765 -0.01066 -0.1414 -0.02559 -0.01784 -0.0186 0.06384
0000a0 a9 34 61 a8 41 28 56 ae 63 31 5f a9 5d af 2c 30
       0.2913 -0.0342 0.03323 -0.099 0.1683 -0.04196 -0.11505 0.1304
0000b0 bd b1 c7 b0 eb ab 3a 2d f0 a9 cd b0 6b b0 15 28
       -0.1793 -0.1493 -0.06186 0.08167 -0.0464 -0.15 -0.1381 0.0319
0000c0 d6 a9 e3 35 ab b0 fd ad e9 28 89 31 c5 b1 bf a3
       -0.0456 0.368 -0.1459 -0.09357 0.03836 0.173 -0.1803 -0.01513
0000d0 13 b0 86 a7 5c b1 eb b3 96 29 1c 31 80 2d 26 21
       -0.1273 -0.02939 -0.1675 -0.2474 0.04364 0.1597 0.08594 0.010056
0000e0 49 b0 14 33 48 b3 01 30 93 b3 b2 1a f8 b2 82 17
       -0.1339 0.2212 -0.2275 0.1251 -0.2367 0.00327 -0.2178 0.001833
0000f0 fb 2f 95 26 f7 af a6 30 a2 2d b3 34 9d a8 8c af
       0.1247 0.02571 -0.12445 0.1453 0.088 0.2937 -0.03604 -0.1179
000100 f7 ab 1b ac f1 b4 29 aa 47 31 c6 af b6 af c5 2e
       -0.06223 -0.06415 -0.3088 -0.04813 0.1649 -0.12146 -0.1205 0.1058
000110 29 b4 ad 2b f0 ad 6c ae b5 af 87 ae 64 24 da b3
       -0.26 0.05997 -0.0928 -0.10034 -0.1204 -0.102 0.01715 -0.2454
000120 89 30 b9 1f 2b ad 08 b2 69 a1 73 1e c0 b3 02 ac
       0.1417 0.00754 -0.08075 -0.1885 -0.01057 0.006298 -0.2422 -0.0626
000130 6f 33 e3 2c 9d b2 ce a8 f6 30 1f 2d 1c af 84 28
       0.2323 0.07635 -0.2067 -0.03754 0.155 0.08 -0.1111 0.03528
000140 0c 29 04 21 f6 b1 8d b1 51 a8 9b b0 17 ac 6b 2c
       0.03943 0.009796 -0.1863 -0.1735 -0.03372 -0.1439 -0.0639 0.06903
000150 e2 af 02 ab a5 32 45 b1 5e ad 32 2b ce b0 be 2d
       -0.12317 -0.05475 0.2076 -0.1647 -0.08386 0.0562 -0.1501 0.0897
000160 da a9 34 ae 37 a4 75 2f 0c 2f cd 30 21 36 57 2c
       -0.04572 -0.0969 -0.01646 0.1165 0.1101 0.15 0.383 0.0678
000170 e3 b1 86 25 33 31 e3 af 2d b2 d6 a1 6c 31 10 ac
       -0.184 0.02158 0.1625 -0.1232 -0.193 -0.0114 0.1694 -0.0635
000180 52 2e 3c 33 17 b0 87 ab 4a a7 2d 31 82 b4 84 1e
       0.09875 0.2261 -0.1278 -0.0588 -0.02847 0.1617 -0.2817 0.006363
000190 90 ae 45 b8 bb 34 fe ae 01 35 69 ad 9c 2b 61 30
       -0.10254 -0.5337 0.2957 -0.10925 0.3127 -0.08453 0.05945 0.1368
0001a0 0b 22 c8 b0 21 2c 6b b2 c7 ae 21 2c 97 2d 53 32
       0.0118 -0.1494 0.0645 -0.2006 -0.1059 0.0645 0.08734 0.1976
0001b0 c6 2c 74 af b5 ae 3e a4 90 2b cb ae 46 33 98 24
       0.0746 -0.11646 -0.1048 -0.01657 0.05908 -0.10614 0.2273 0.01794
0001c0 66 30 cf ae e6 af f2 ad 0e b0 a0 27 d2 af 83 a4
       0.1375 -0.1064 -0.1234 -0.0929 -0.1267 0.02979 -0.1222 -0.01762
0001d0 40 b0 cc af 2c 29 d1 2f d6 ad c3 ab 22 30 1a 2c
       -0.1328 -0.1218 0.0404 0.12213 -0.0912 -0.06064 0.1292 0.0641
0001e0 2e a6 bb af 63 2a 3f b1 d3 af 2f 32 4c b0 89 ae
       -0.02414 -0.1208 0.0499 -0.164 -0.12225 0.1932 -0.1343 -0.1021
0001f0 70 33 33 b0 e5 31 d1 a2 e7 32 4d 32 3e b4 c8 33
       0.2324 -0.1312 0.1842 -0.01331 0.2157 0.1969 -0.2651 0.2432

arith.constant1 f2 [128]
000000 37 b6 90 24 ec aa 89 b4 3e b7 b9 28 87 b5 07 b5
       -0.3884 0.01782 -0.05408 -0.2834 -0.4526 0.0369 -0.3455 -0.3142
000010 07 b3 5d b4 5c b4 df b4 25 b2 07 b6 98 b4 97 b4
       -0.2196 -0.2727 -0.2725 -0.3044 -0.192 -0.3767 -0.287 -0.2869
000020 c9 b3 f1 ac 7e b3 0a ab 44 b2 87 b5 1c b6 80 b2
       -0.2433 -0.0772 -0.2341 -0.055 -0.1958 -0.3455 -0.3818 -0.2031
000030 4f ae 69 ae 7a b5 36 b2 f8 b1 af b8 c7 b5 68 b4
       -0.0986 -0.10016 -0.3423 -0.1941 -0.1865 -0.5854 -0.361 -0.2754
000040 06 b2 50 21 06 b4 59 b6 d1 b4 61 b5 11 b8 a6 b5
       -0.1882 0.010376 -0.2515 -0.3967 -0.301 -0.3362 -0.5083 -0.353
000050 1f b8 60 b4 8d b7 de b4 4b b7 d3 b2 47 b4 e5 b5
       -0.515 -0.2734 -0.472 -0.3042 -0.4558 -0.2133 -0.2673 -0.3684
000060 ec b6 20 33 53 b4 17 b6 49 b4 0f b8 7a b2 1f b4
       -0.4326 0.2227 -0.2703 -0.3806 -0.2678 -0.5073 -0.2024 -0.2576
000070 24 a8 ca b4 09 b6 55 b5 6e b4 df b4 e3 b5 79 b4
       -0.03235 -0.2993 -0.3772 -0.3333 -0.2769 -0.3044 -0.368 -0.2795
000080 8a b5 84 aa 0c b8 d0 b6 62 b3 c8 b6 ba b2 a8 b4
       -0.3462 -0.0509 -0.506 -0.4258 -0.2307 -0.4238 -0.2102 -0.291
000090 42 b7 7f b3 17 b0 fd b2 64 b1 ff b3 a9 b4 62 b4
       -0.4536 -0.2343 -0.1278 -0.2184 -0.1685 -0.2499 -0.2913 -0.274
0000a0 e5 a9 89 b1 0c b8 69 b5 e2 ac 8e b1 7f b3 77 b4
       -0.04605 -0.173 -0.506 -0.3381 -0.0763 -0.1736 -0.2343 -0.279
0000b0 72 b6 eb ae 5c 26 0a b6 dc b4 4b b5 04 a4 4b a8
       -0.4028 -0.1081 0.02484 -0.3774 -0.3037 -0.3308 -0.01569 -0.03354
0000c0 e3 ae 2c b4 b8 a6 15 b4 89 b1 2e b6 ed ae 6d b4
       -0.1076 -0.2607 -0.02625 -0.2551 -0.173 -0.3862 -0.1082 -0.2766
0000d0 f4 b4 03 b1 2c b4 4e b8 4a b4 01 b4 1c aa 5e b3
       -0.3096 -0.1566 -0.2607 -0.538 -0.268 -0.2502 -0.04773 -0.2302
0000e0 b6 b6 c0 b5 85 ac cc b4 48 b8 fe b2 48 b4 55 b8
       -0.4194 -0.3594 -0.0706 -0.2998 -0.535 -0.2185 -0.2676 -0.5415
0000f0 13 b1 48 b5 7f b5 94 b5 8f ab ca b7 b9 b3 18 a3
       -0.1586 -0.33 -0.3435 -0.3486 -0.05905 -0.4868 -0.2413 -0.013855

arith.constant2 f2 [64]
000000 3c 3b 5f 3f 0b 3f f4 b2 31 35 d9 3e ce 3c ad bc
       0.9043 1.843 1.761 -0.2173 0.3245 1.712 1.201 -1.169
000010 4a 25 4a b8 51 3a 99 3a 8b 41 7d 3f 61 3b 45 ae
       0.02066 -0.536 0.7896 0.8247 2.771 1.872 0.9224 -0.09796
000020 0c b8 f8 3f 98 b8 e4 a0 ba 38 8b 3c a6 30 e2 3c
       -0.506 1.992 -0.574 -0.00955 0.591 1.136 0.1453 1.221
000030 a6 40 66 3b f0 bd b8 3d c9 40 71 bc 0b 38 63 b3
       2.324 0.925 -1.484 1.43 2.393 -1.11 0.5054 -0.2308
000040 06 33 b5 b7 6f 38 29 38 30 37 01 3d fe 40 b6 3f
       0.2195 -0.4817 0.554 0.52 0.4492 1.251 2.496 1.928
000050 36 39 b3 bd ed 3b 1d 38 3b b8 b0 40 68 3d 84 40
       0.6514 -1.425 0.9907 0.514 -0.529 2.344 1.352 2.258
000060 d2 39 9b bd 08 3e 29 3f de 39 e2 3c 82 3f 24 39
       0.7275 -1.401 1.508 1.79 0.7334 1.221 1.877 0.6426
000070 86 b4 92 39 f9 3a 98 40 c7 bb 19 3f cb 34 b5 34
       -0.2827 0.6963 0.8716 2.297 -0.972 1.774 0.2996 0.2942

arith.constant3 f2 [64, 128]
000000 62 b0 ff b4 c7 30 b2 32 24 2f 93 35 9d 35 b0 23
       -0.137 -0.3123 0.1493 0.2092 0.1116 0.3484 0.3508 0.015015
000010 a5 31 38 b8 d7 22 ed bb 09 34 1c ba 29 a7 a6 b5
       0.1764 -0.5273 0.01336 -0.9907 0.2522 -0.7637 -0.02797 -0.353
000020 f3 b2 64 b0 af b0 e3 2c b2 20 7a 3b ce 2a d4 a7
       -0.2172 -0.1372 -0.1464 0.07635 0.00917 0.9346 0.05316 -0.03058
000030 1b b8 78 35 31 b1 21 1d b2 a0 6b 36 d8 b1 6e 31
       -0.513 0.3418 -0.1622 0.00501 -0.00917 0.4011 -0.1826 0.1697
000040 96 34 53 b2 ae 36 3e b8 79 39 40 b9 aa 36 e0 3a
       0.2866 -0.1976 0.4175 -0.5303 0.684 -0.6562 0.4165 0.8594
000050 b2 b2 9b 2f 36 af ce 2e c1 33 c7 bc 5e b4 ce a3
       -0.2092 0.11884 -0.1127 0.1063 0.2423 -1.194 -0.273 -0.01524
000060 82 b9 32 36 3f b0 ec b0 7c 32 36 ac 09 b5 cb a4
       -0.6885 0.3872 -0.1327 -0.1538 0.2026 -0.0658 -0.3147 -0.01872
000070 1d b6 64 b4 09 b6 7d a8 2f aa 66 b1 42 a8 4e 2d
       -0.382 -0.2744 -0.3772 -0.03506 -0.0483 -0.1687 -0.03326 0.0829
000080 95 b8 12 ab be ae 71 20 d0 bb 8a 30 a5 b4 cf 2e
       -0.5728 -0.05524 -0.10535 0.008675 -0.9766 0.1418 -0.2903 0.1064
000090 07 25 20 ba 25 2d 18 3b 78 32 07 b3 e9 a8 13 25
       0.01964 -0.7656 0.0804 0.8867 0.2021 -0.2196 -0.03836 0.01982
0000a0 45 31 fb 27 63 1d bf 2f 0a b6 c5 ac ae 24 f9 be
       0.1647 0.03117 0.00526 0.12103 -0.3774 -0.0745 0.01828 -1.743
0000b0 78 36 23 ae cd 35 d6 3a 4c 31 4c 29 6d 35 6d b1
       0.4043 -0.0959 0.3625 0.8545 0.1655 0.04138 0.339 -0.1696
0000c0 7f b2 57 39 9a b4 62 33 f6 b1 cc 38 c6 ac 92 2f
       -0.203 0.6675 -0.2876 0.2307 -0.1863 0.5996 -0.0746 0.1183
0000d0 89 ae 7c 34 17 3a 53 24 40 b4 19 b5 88 b8 14 32
       -0.1021 0.2803 0.761 0.01689 -0.2656 -0.3186 -0.5664 0.19
0000e0 a4 32 11 bc c6 af ce 2d 66 2b aa 34 aa b2 a2 ae
       0.2075 -1.017 -0.12146 0.0907 0.0578 0.2915 -0.2083 -0.10364
0000f0 d0 b2 47 bc ac 3b 18 b4 da 2c 6c b1 6d 35 bb b4
       -0.2129 -1.069 0.959 -0.2559 0.0758 -0.1694 0.339 -0.2957
000100 f9 2e d2 26 c9 30 6c bb a1 2f 50 31 d6 b9 83 2a
       0.10895 0.02664 0.1495 -0.9277 0.1192 0.166 -0.7295 0.05087
000110 8e b3 94 b2 c7 32 8c b8 67 2d a6 38 2e b4 3c 29
       -0.2361 -0.2056 0.2118 -0.5684 0.0844 0.581 -0.2612 0.0409
000120 15 b6 53 2c be 21 7c b1 4b 32 6d b7 2b 28 11 b5
       -0.3801 0.06757 0.011215 -0.1714 0.1967 -0.464 0.03256 -0.3167
000130 e7 b6 8f 27 70 b3 99 ab fa ac 10 2e 94 af d6 b7
       -0.4314 0.02953 -0.2324 -0.05936 -0.07776 0.0947 -0.1184 -0.4897
000140 fe 36 87 b0 bd ba 9a b1 d2 b1 2d b0 f9 31 4c b4
       0.437 -0.1415 -0.8423 -0.175 -0.1819 -0.1305 0.1866 -0.2686
000150 78 35 15 a8 2a a7 b2 b4 e7 30 66 b8 d1 32 67 b6
       0.3418 -0.0319 -0.02798 -0.2935 0.1532 -0.55 0.213 -0.4001
000160 6e 36 26 2f 24 b9 e3 2e 97 2c 46 b4 ce ae e4 35
       0.4019 0.1117 -0.6426 0.1076 0.0717 -0.267 -0.1063 0.3682
000170 c4 af 9e b0 88 b9 7b b8 7f 2f bf b0 8d aa 34 b7
       -0.12134 -0.1443 -0.6914 -0.56 0.1171 -0.1483 -0.05118 -0.4502
000180 c2 b4 5e b2 01 b1 2b 9f 5d b1 66 a9 f0 b3 bd 34
       -0.2974 -0.199 -0.1564 -0.007 -0.1676 -0.04218 -0.248 0.2961
000190 01 b8 66 b8 2e a7 4f 38 d5 31 9e 30 c4 ac 28 a5
       -0.5005 -0.55 -0.02805 0.5386 0.1823 0.1443 -0.07446 -0.02014
0001a0 f4 1d e8 ad 29 aa 0f 30 fa bd 75 b5 bc 30 b0 35
       0.005814 -0.0923 -0.04813 0.1268 -1.494 -0.341 0.148 0.3555
0001b0 bd 33 2f 35 0c b4 ee aa 64 35 fe 37 d3 34 c6 2c
       0.2418 0.324 -0.253 -0.05414 0.337 0.4995 0.3015 0.0746
0001c0 c1 b1 c2 b0 77 b8 19 35 cd 2f 22 b8 c3 b1 be b5
       -0.1798 -0.1487 -0.558 0.3186 0.1219 -0.5166 -0.18 -0.359
0001d0 2a b1 b7 2d 20 ac 3b 37 84 ae 73 29 64 ad e9 b3
       -0.1614 0.0893 -0.06445 0.452 -0.1018 0.04257 -0.0842 -0.2472
0001e0 35 b5 a3 38 e9 36 66 32 8c 2e 0a b9 93 34 f5 33
       -0.3254 0.5796 0.432 0.2 0.1023 -0.63 0.286 0.2487
0001f0 05 b5 cd b7 9b b8 77 b6 6c 35 4c 34 c0 31 08 34
       -0.3137 -0.4875 -0.5757 -0.404 0.3389 0.2686 0.1797 0.252

arith.constant4 f2 [32]
000000 bb 3f d3 40 27 3d 9c 40 56 3c 08 41 81 3c 63 3d
       1.933 2.412 1.288 2.305 1.084 2.516 1.126 1.347
000010 bc 3f 13 3f 5e 3c b0 3c 0b 3f 72 3f 3b 41 6f 40
       1.934 1.769 1.092 1.172 1.761 1.861 2.615 2.217
000020 66 3a e9 40 8e 3f bf ac 5d 3f 09 31 27 3c 6e 3f
       0.8 2.455 1.889 -0.07416 1.841 0.1573 1.038 1.857
000030 ba 40 fb 35 27 3b fc 3a 0e 3e aa 3f df 3f b4 3f
       2.363 0.3738 0.894 0.873 1.514 1.916 1.968 1.926

arith.constant5 f2 [32, 64]
000000 08 2b 1c 2d 9d 29 19 a8 a1 2d 83 a6 79 a1 1b b1
       0.05493 0.07983 0.04385 -0.032 0.08795 -0.02544 -0.01069 -0.1595
000010 da b4 99 b4 28 30 5b 28 c6 2e 2e a3 f4 2c 87 a4
       -0.3032 -0.2874 0.1299 0.03403 0.10583 -0.01402 0.0774 -0.01768
000020 b7 25 e1 a9 43 b0 9a 2b 83 ab b1 2d d3 22 89 2f
       0.02232 -0.04593 -0.1332 0.0594 -0.0587 0.0889 0.01333 0.11774
000030 42 28 8d ac 24 ad 7b ab 26 30 39 a3 b6 b0 01 28
       0.03326 -0.0711 -0.0803 -0.05844 0.1296 -0.01411 -0.1472 0.03128
000040 11 b3 50 b0 d4 2d 23 aa e5 29 67 30 49 2a a0 24
       -0.2208 -0.1348 0.09106 -0.04794 0.04605 0.1376 0.0491 0.01807
000050 6d ac 33 a9 01 28 73 a4 84 af 4b 09 31 a8 0b aa
       -0.06915 -0.04062 0.03128 -0.01738 -0.11743 0.0001615 -0.03275 -0.0472
000060 03 2b 59 27 8c 22 fb 31 b1 b2 a6 aa 66 28 3d ad
       0.05478 0.0287 0.01279 0.1869 -0.2091 -0.05194 0.03436 -0.08185
000070 ae b0 88 ad fa 2e 3d ac 86 af 08 23 2c b1 73 a9
       -0.1462 -0.0864 0.109 -0.0662 -0.11755 0.01373 -0.1616 -0.04257
000080 64 1d 8c 2f 76 ae e7 a7 2d ae 38 2d 6a 1b 00 ae
       0.005264 0.1179 -0.10095 -0.03087 -0.0965 0.08154 0.00362 -0.09375
000090 28 30 23 ae 80 2e 4e 2d 2e 2a 3b b0 28 ad 1b a9
       0.1299 -0.0959 0.10156 0.0829 0.04828 -0.1322 -0.08057 -0.0399
0000a0 51 a9 da ac c9 b3 02 a2 22 9c 1d b0 30 a0 90 a3
       -0.04153 -0.0758 -0.2433 -0.011734 -0.004036 -0.1285 -0.00818 -0.01477
0000b0 a9 a0 cf b1 d9 01 a6 af 62 ae 54 ac 88 a7 27 24
       -0.0091 -0.1815 2.82e-05 -0.1195 -0.09973 -0.0676 -0.02942 0.01622
0000c0 bd b4 1c aa 6a 29 4e b2 d5 27 14 30 24 30 c6 2a
       -0.2961 -0.04773 0.0423 -0.197 0.0306 0.1274 0.1294 0.05292
0000d0 fb aa 41 ad 50 b1 e0 ae 9f ad e6 19 e7 24 a0 ad
       -0.05453 -0.0821 -0.166 -0.1074 -0.0878 0.00288 0.01915 -0.0879
0000e0 51 2e d5 a2 75 a8 c1 a9 02 aa 47 a9 b1 99 98 b1
       0.0987 -0.01334 -0.03482 -0.04495 -0.04694 -0.04123 -0.002779 -0.1748
0000f0 57 a9 68 30 3d 30 9f 23 91 26 2d 2f 6f 26 3c a4
       -0.04172 0.1377 0.1324 0.014885 0.02565 0.1121 0.02513 -0.01654
000100 99 21 db 2c c0 30 35 29 69 ac ce 2d 43 2e f1 ab
       0.01093 0.07587 0.1484 0.04068 -0.0689 0.0907 0.09784 -0.06204
000110 e9 31 b2 29 53 a8 6d ae b7 2e d5 aa 2a b2 91 2c
       0.1847 0.0445 -0.03378 -0.1004 0.1049 -0.05338 -0.1926 0.07135
000120 d3 9d 44 30 6d b3 05 af 19 aa 12 ae d1 a8 94 9f
       -0.005688 0.1333 -0.232 -0.1097 -0.04764 -0.09485 -0.03763 -0.0074
000130 72 2b 7e 27 75 29 99 a3 cc af 5e aa 21 ab a4 29
       0.05817 0.02927 0.04263 -0.01484 -0.1218 -0.04974 -0.0557 0.04407
000140 6b a3 44 29 21 b2 1c b4 18 31 63 2d 67 a2 84 95
       -0.01449 0.04114 -0.1915 -0.2568 0.1592 0.08417 -0.012505 -0.001347
000150 8c 29 4b af b8 ab 69 1b 1f 2f 59 2b 66 2e 1e 2f
       0.04333 -0.11395 -0.0603 0.003618 0.11127 0.0574 0.1 0.1112
000160 67 2c 64 ad c4 95 07 b3 aa 2a 05 b0 95 20 05 2c
       0.0688 -0.0842 -0.001408 -0.2196 0.05206 -0.1256 0.00895 0.0628
000170 fa aa 2a 2e 18 26 de a8 f3 28 60 ae 09 28 b0 ac
       -0.0545 0.0963 0.0238 -0.03802 0.03867 -0.0996 0.03152 -0.07324
000180 bb 9d 0f b0 5e b4 e6 ad 3d af 2a af 09 2c 46 b1
       -0.005596 -0.1268 -0.273 -0.09216 -0.1131 -0.11194 0.06305 -0.1648
000190 ca ae 18 2c d1 2d e5 ae 7f ac bc 28 ca a4 80 b4
       -0.1061 0.06396 0.0909 -0.1077 -0.07025 0.037 -0.0187 -0.2812
0001a0 83 af 63 a8 17 2c 91 2c 72 28 b7 2f 63 27 1b af
       -0.1174 -0.03427 0.0639 0.07135 0.03473 0.12054 0.02885 -0.111
0001b0 b5 a3 24 24 1b a5 b3 29 64 2d ec 29 22 b0 7f 2d
       -0.01505 0.01617 -0.01994 0.04453 0.0842 0.04626 -0.1292 0.0859
0001c0 3f b0 48 a5 f7 2c 32 2d 4b ab ee ac 35 30 4f 14
       -0.1327 -0.02063 0.0776 0.0812 -0.05698 -0.077 0.1315 0.001052
0001d0 1c 9e 66 b1 06 98 78 2a 48 b2 fb ac 7e 2c 22 a7
       -0.005966 -0.1687 -0.001965 0.05054 -0.1963 -0.0778 0.0702 -0.02786
0001e0 81 ab 7d ae a8 b1 d7 a6 f6 ac 91 2c 26 20 48 17
       -0.05862 -0.1014 -0.1768 -0.02672 -0.0775 0.07135 0.0081 0.001778
0001f0 d8 b0 aa ac fb 2d 5c 2b c6 29 fd 2f 90 24 1e b1
       -0.1514 -0.0729 0.09344 0.0575 0.0451 0.1248 0.01782 -0.1599

arith.constant6 f2 [14]
000000 8f 3f 72 40 aa 37 69 3d d6 3a ee 41 20 41 68 38
       1.89 2.223 0.479 1.353 0.8545 2.965 2.562 0.551
000010 91 c4 0c c2 67 30 ae 44 b7 2b 0a 22
       -4.566 -3.023 0.1376 4.68 0.06027 0.011795

arith.constant7 f2 [14, 32]
000000 0a b8 7a b6 3b b5 93 b3 0e 39 89 b5 56 b3 9a af
       -0.505 -0.4048 -0.327 -0.2367 0.632 -0.346 -0.2292 -0.1188
000010 0b ae 59 3a a2 b4 1e b6 e8 35 d8 38 00 b8 24 32
       -0.0944 0.7935 -0.2896 -0.3823 0.3691 0.6055 -0.5 0.1919
000020 cd b8 4c 39 5f 38 4b 2f 00 b7 99 2f 8f b5 88 b5
       -0.6 0.662 0.5464 0.11395 -0.4375 0.1187 -0.3474 -0.3457
000030 0e 38 3e b7 b3 b6 05 a5 59 35 b1 ae 43 ac bc b3
       0.507 -0.4526 -0.4187 -0.0196 0.3342 -0.10455 -0.0666 -0.2417
000040 0d b4 7b 33 f1 37 99 3a cb b5 12 b5 a2 b9 ec 3a
       -0.2532 0.2338 0.4963 0.8247 -0.362 -0.317 -0.704 0.865
000050 c2 a2 51 b8 6a b6 60 b9 70 b8 e5 36 1f b5 a6 b8
       -0.0132 -0.5396 -0.401 -0.672 -0.5547 0.431 -0.32 -0.581
000060 a6 36 a5 3a 37 ae 48 a8 0a 37 2a 34 34 9c d0 b3
       0.4155 0.8306 -0.0971 -0.03345 0.44 0.2603 -0.004105 -0.2441
000070 ad b6 da b8 f1 38 35 b6 b0 b4 51 35 2e ba 82 b8
       -0.4172 -0.6064 0.6177 -0.388 -0.293 0.3323 -0.7725 -0.5635
000080 51 35 58 b3 c7 b5 e8 b4 78 31 81 b5 bb b5 c7 b1
       0.3323 -0.2295 -0.361 -0.3066 0.1709 -0.344 -0.3582 -0.1805
000090 8b b7 73 39 3c 2e 70 b5 cc af 31 b5 c3 3b 3a 35
       -0.4714 0.681 0.0974 -0.3398 -0.1218 -0.3245 0.97 0.3267
0000a0 f0 3a 57 b6 a4 38 cd b6 bc b5 e3 38 f0 b0 7f b3
       0.867 -0.3962 0.58 -0.425 -0.3584 0.611 -0.1543 -0.2343
0000b0 f5 b7 d4 b7 e7 aa 05 b8 cc 39 92 ae 9d b4 ef 28
       -0.4973 -0.4893 -0.05392 -0.5024 0.7246 -0.10266 -0.2883 0.03854
0000c0 97 25 c1 ba 69 b8 38 37 24 b7 50 28 0a 38 fa 30
       0.02184 -0.844 -0.5513 0.4512 -0.4463 0.0337 0.505 0.1555
0000d0 bc 39 bd 39 fb b9 bd b4 96 b0 7c 2e 4d b4 7a 37
       0.717 0.7173 -0.7476 -0.2961 -0.1433 0.1013 -0.2688 0.4673
0000e0 56 b7 ab b2 ef b4 43 ad 09 b8 b6 b5 a2 38 5d 31
       -0.4585 -0.2084 -0.3083 -0.0822 -0.5044 -0.357 0.579 0.1676
0000f0 5e b9 1e b5 88 3a 75 b5 fb b0 a4 38 90 38 1a b9
       -0.671 -0.3198 0.8164 -0.341 -0.1556 0.58 0.5703 -0.6377
000100 21 3a 9d 39 fc b0 89 a9 16 b7 1b 34 63 b9 ed 33
       0.766 0.7017 -0.1558 -0.04324 -0.4429 0.2566 -0.6733 0.2477
000110 e3 30 a3 b7 31 b6 b8 36 63 38 17 39 d2 b5 c1 2a
       0.1527 -0.4773 -0.387 0.42 0.5483 0.636 -0.3638 0.05276
000120 42 a9 98 2b ee b4 0b b6 f7 b8 38 b6 96 b7 19 b4
       -0.04108 0.05933 -0.308 -0.3777 -0.6206 -0.3887 -0.474 -0.256
000130 e1 37 3b b5 6d b2 b1 b6 2e b5 07 39 1e 38 6c 37
       0.4924 -0.327 -0.2008 -0.4182 -0.3237 0.6284 0.5146 0.4639
000140 79 39 b3 b7 74 b0 c2 30 47 b5 ba b8 79 b7 3a 23
       0.684 -0.4812 -0.1392 0.1487 -0.3298 -0.591 -0.467 0.014114
000150 44 b6 28 b6 fa b7 b9 3a 12 b6 df b7 9b b5 a3 35
       -0.3916 -0.3848 -0.4985 0.8403 -0.3794 -0.492 -0.3503 0.3523
000160 06 2e f1 34 76 31 b1 2e 09 b8 6c b3 20 b7 97 39
       0.0941 0.3088 0.1707 0.10455 -0.5044 -0.2319 -0.4453 0.6987
000170 5c af 51 39 4f b4 51 36 0d b9 bb 38 48 b8 1b 2f
       -0.115 0.6646 -0.2693 0.3948 -0.6313 0.5913 -0.535 0.111
000180 88 b6 48 1e ba b6 2d b8 92 b4 88 b6 43 38 48 39
       -0.4082 0.006134 -0.4204 -0.522 -0.2856 -0.4082 0.5327 0.66
000190 3a 37 d6 37 dc 38 b9 3a 42 39 7f b5 03 b6 3c b8
       0.4517 0.4897 0.6074 0.8403 0.657 -0.3435 -0.3757 -0.5293
0001a0 48 31 1f b4 b6 b5 71 32 00 b3 67 2c a4 b0 eb b4
       0.165 -0.2576 -0.357 0.2013 -0.2188 0.0688 -0.145 -0.3074
0001b0 ea ae 3e ad df af 93 34 76 b6 f3 b5 5e b6 5e b9
       -0.10803 -0.0819 -0.123 0.286 -0.4038 -0.3718 -0.398 -0.671
0001c0 90 b1 27 37 3c 3b 25 37 a9 b8 85 b5 3f b8 04 b2
       -0.1738 0.447 0.9043 0.4465 -0.5825 -0.345 -0.531 -0.188
0001d0 80 b9 ba 3a 7e 38 79 b3 5b af f8 36 0c a9 e0 b5
       -0.6875 0.841 0.5615 -0.2335 -0.1149 0.4355 -0.03943 -0.3672
0001e0 4a b3 41 30 0c b6 03 38 1d b0 e1 b3 d7 38 87 af
       -0.2278 0.1329 -0.378 0.5015 -0.1285 -0.2462 0.605 -0.1176
0001f0 91 b2 53 b7 05 2a e4 32 de 31 79 b7 d4 33 38 b7
       -0.2052 -0.4578 0.04703 0.2153 0.1833 -0.467 0.2446 -0.4512
